{"modelTopology":{"class_name":"Sequential","config":{"name":"sequential_4","layers":[{"class_name":"Dense","config":{"units":32,"activation":"relu","use_bias":false,"kernel_initializer":{"class_name":"VarianceScaling","config":{"scale":1,"mode":"fan_avg","distribution":"normal","seed":null}},"bias_initializer":{"class_name":"Zeros","config":{}},"kernel_regularizer":null,"bias_regularizer":null,"activity_regularizer":null,"kernel_constraint":null,"bias_constraint":null,"name":"dense_Dense37","trainable":true,"batch_input_shape":[null,3072],"dtype":"float32"}},{"class_name":"Dense","config":{"units":32,"activation":"relu","use_bias":false,"kernel_initializer":{"class_name":"VarianceScaling","config":{"scale":1,"mode":"fan_avg","distribution":"normal","seed":null}},"bias_initializer":{"class_name":"Zeros","config":{}},"kernel_regularizer":null,"bias_regularizer":null,"activity_regularizer":null,"kernel_constraint":null,"bias_constraint":null,"name":"dense_Dense38","trainable":true}},{"class_name":"Dense","config":{"units":32,"activation":"relu","use_bias":false,"kernel_initializer":{"class_name":"VarianceScaling","config":{"scale":1,"mode":"fan_avg","distribution":"normal","seed":null}},"bias_initializer":{"class_name":"Zeros","config":{}},"kernel_regularizer":null,"bias_regularizer":null,"activity_regularizer":null,"kernel_constraint":null,"bias_constraint":null,"name":"dense_Dense39","trainable":true}},{"class_name":"Dense","config":{"units":32,"activation":"relu","use_bias":false,"kernel_initializer":{"class_name":"VarianceScaling","config":{"scale":1,"mode":"fan_avg","distribution":"normal","seed":null}},"bias_initializer":{"class_name":"Zeros","config":{}},"kernel_regularizer":null,"bias_regularizer":null,"activity_regularizer":null,"kernel_constraint":null,"bias_constraint":null,"name":"dense_Dense40","trainable":true}},{"class_name":"Dense","config":{"units":32,"activation":"relu","use_bias":false,"kernel_initializer":{"class_name":"VarianceScaling","config":{"scale":1,"mode":"fan_avg","distribution":"normal","seed":null}},"bias_initializer":{"class_name":"Zeros","config":{}},"kernel_regularizer":null,"bias_regularizer":null,"activity_regularizer":null,"kernel_constraint":null,"bias_constraint":null,"name":"dense_Dense41","trainable":true}},{"class_name":"Dense","config":{"units":32,"activation":"relu","use_bias":false,"kernel_initializer":{"class_name":"VarianceScaling","config":{"scale":1,"mode":"fan_avg","distribution":"normal","seed":null}},"bias_initializer":{"class_name":"Zeros","config":{}},"kernel_regularizer":null,"bias_regularizer":null,"activity_regularizer":null,"kernel_constraint":null,"bias_constraint":null,"name":"dense_Dense42","trainable":true}},{"class_name":"Dense","config":{"units":32,"activation":"relu","use_bias":false,"kernel_initializer":{"class_name":"VarianceScaling","config":{"scale":1,"mode":"fan_avg","distribution":"normal","seed":null}},"bias_initializer":{"class_name":"Zeros","config":{}},"kernel_regularizer":null,"bias_regularizer":null,"activity_regularizer":null,"kernel_constraint":null,"bias_constraint":null,"name":"dense_Dense43","trainable":true}},{"class_name":"Dense","config":{"units":32,"activation":"relu","use_bias":false,"kernel_initializer":{"class_name":"VarianceScaling","config":{"scale":1,"mode":"fan_avg","distribution":"normal","seed":null}},"bias_initializer":{"class_name":"Zeros","config":{}},"kernel_regularizer":null,"bias_regularizer":null,"activity_regularizer":null,"kernel_constraint":null,"bias_constraint":null,"name":"dense_Dense44","trainable":true}},{"class_name":"Dense","config":{"units":32,"activation":"relu","use_bias":false,"kernel_initializer":{"class_name":"VarianceScaling","config":{"scale":1,"mode":"fan_avg","distribution":"normal","seed":null}},"bias_initializer":{"class_name":"Zeros","config":{}},"kernel_regularizer":null,"bias_regularizer":null,"activity_regularizer":null,"kernel_constraint":null,"bias_constraint":null,"name":"dense_Dense45","trainable":true}},{"class_name":"Dense","config":{"units":32,"activation":"relu","use_bias":false,"kernel_initializer":{"class_name":"VarianceScaling","config":{"scale":1,"mode":"fan_avg","distribution":"normal","seed":null}},"bias_initializer":{"class_name":"Zeros","config":{}},"kernel_regularizer":null,"bias_regularizer":null,"activity_regularizer":null,"kernel_constraint":null,"bias_constraint":null,"name":"dense_Dense46","trainable":true}},{"class_name":"Dense","config":{"units":32,"activation":"relu","use_bias":false,"kernel_initializer":{"class_name":"VarianceScaling","config":{"scale":1,"mode":"fan_avg","distribution":"normal","seed":null}},"bias_initializer":{"class_name":"Zeros","config":{}},"kernel_regularizer":null,"bias_regularizer":null,"activity_regularizer":null,"kernel_constraint":null,"bias_constraint":null,"name":"dense_Dense47","trainable":true}},{"class_name":"Dense","config":{"units":3072,"activation":"relu","use_bias":false,"kernel_initializer":{"class_name":"VarianceScaling","config":{"scale":1,"mode":"fan_avg","distribution":"normal","seed":null}},"bias_initializer":{"class_name":"Zeros","config":{}},"kernel_regularizer":null,"bias_regularizer":null,"activity_regularizer":null,"kernel_constraint":null,"bias_constraint":null,"name":"dense_Dense48","trainable":true}}]},"keras_version":"tfjs-layers 1.5.1","backend":"tensor_flow.js"},"weightsManifest":[{"paths":["weights.bin"],"weights":[{"name":"dense_Dense37/kernel","shape":[3072,32],"dtype":"float32"},{"name":"dense_Dense38/kernel","shape":[32,32],"dtype":"float32"},{"name":"dense_Dense39/kernel","shape":[32,32],"dtype":"float32"},{"name":"dense_Dense40/kernel","shape":[32,32],"dtype":"float32"},{"name":"dense_Dense41/kernel","shape":[32,32],"dtype":"float32"},{"name":"dense_Dense42/kernel","shape":[32,32],"dtype":"float32"},{"name":"dense_Dense43/kernel","shape":[32,32],"dtype":"float32"},{"name":"dense_Dense44/kernel","shape":[32,32],"dtype":"float32"},{"name":"dense_Dense45/kernel","shape":[32,32],"dtype":"float32"},{"name":"dense_Dense46/kernel","shape":[32,32],"dtype":"float32"},{"name":"dense_Dense47/kernel","shape":[32,32],"dtype":"float32"},{"name":"dense_Dense48/kernel","shape":[32,3072],"dtype":"float32"}]}],"format":"layers-model","generatedBy":"TensorFlow.js tfjs-layers v1.5.1","convertedBy":null}